johns_wine_model.pt (torch, 5464 bytes, 3 tensors)

0.weight f4 [64, 11]
-0.26886144 -0.18266287 0.17192551 0.31401563 -0.18977132 -0.21435514 -0.049762357 -0.028881893
0.2746559 0.03025958 0.13777827 -0.02903228 0.11597025 -0.2202706 -0.3748998 -0.2582191
0.29153883 0.131322 0.06275512 -0.22705655 -0.1379447 -0.28760067 0.05729139 0.01754911
0.014716506 -0.39994586 -0.16445924 -0.40443936 -0.28478086 -0.12127351 -0.3359623 0.24817349
0.09814334 -0.03095632 -0.046728544 -0.21425134 -0.023848588 0.0034890298 0.20272382 -0.25943944
0.08063593 0.073137246 -0.0004048608 0.10043737 0.10458072 -0.03731267 -0.20351289 -0.12535138
0.070039466 0.05173077 -0.011438153 0.019794585 0.0010561462 0.0035827789 0.07754592 0.026559947
0.16447844 0.22449857 -0.252122 -0.0399911 0.29298958 0.34499252 -0.10910455 -0.007596055
-0.2023283 -0.09000564 -0.4317725 0.17540364 -0.43104383 0.18369003 0.15290582 -0.112594195
0.02171217 0.5087122 0.077316605 -0.09667774 -0.03986682 -0.21750078 0.053437382 -0.38105437
0.06314051 -0.54150546 -0.09810116 -0.20835502 -0.36136994 0.38163516 -0.6035641 -0.020749623
-0.40631273 -0.25913927 -0.24043629 -0.12123913 0.12791874 -0.30697548 -0.038859904 0.07232857
0.06093639 -0.18944362 -0.42063358 -0.07943842 0.35356992 -0.15835547 0.0015886751 0.25773486
-0.32845426 -0.3357484 -0.3312219 -0.2403792 -0.24596088 -0.033864375 -0.19296303 0.11521155
-0.33851686 -0.02228219 -0.33641425 0.3269137 0.055866856 0.35824215 0.17488025 -0.12903649
0.25200632 0.30193385 0.20139562 0.038206715 0.2505211 -0.16052277 0.21867797 -0.16450715
0.20073415 0.18672438 -0.2860702 -0.18538362 0.15584424 -0.32594687 -0.17912112 0.06648947
-0.07762363 -0.36606708 -0.36592 0.21567589 -0.030065896 0.11471885 -0.21896167 0.0640748
-0.021527441 -0.15299176 0.12484858 0.013581763 -0.064546034 -0.030658796 0.040749993 0.2760403
0.10538812 -0.05937003 -0.14560154 -0.14673486 -0.0220349 -0.051600307 0.18122703 -0.09399373
-0.21843256 0.23154746 -0.015317565 0.11613481 0.40342712 0.043844335 -0.006351417 0.22014098
-0.06851887 -0.058455326 -0.15321931 0.054912325 -0.07712182 -0.036452156 0.039331783 0.28511417
0.27841213 0.066739686 0.41842166 -0.3038391 -0.06627991 0.13816512 0.35375825 0.010096459
-0.18009977 -0.31341076 -0.350247 -0.041045792 0.289381 -0.33099234 -0.053154875 -0.2992367
-0.14204675 0.3002806 0.22955346 0.09852456 -0.089141734 -0.17071085 -0.08111683 -0.055401832
0.03545064 -0.024959795 0.14230977 -0.09244709 0.05900643 -0.014150059 -0.128497 0.18573362
0.05755246 -0.20531917 0.12097387 -0.1102652 0.10301707 -0.0072352826 -0.04194311 -0.15860306
-0.1163129 -0.12828292 0.07270851 0.123494856 -0.017085636 -0.21616624 -0.41425952 -0.018339852
-0.3229599 0.16193183 0.28176406 -0.24362257 -0.23480205 -0.22212546 -0.34691703 -0.05419748
-0.24068727 -0.35183898 0.04022898 -0.06316802 0.06551096 -0.3999979 -0.15418065 0.20356527
0.16359012 0.4010701 -0.01168448 -0.0332023 0.020811757 0.1936867 0.2801445 -0.25434273
-0.13899304 -0.113381565 0.18083163 -0.11331921 -0.14055389 -0.013007066 0.14695783 -0.13822193
00000000: 35a8 89be fa0b 3bbe 3e0d 303e a8c6 a03e
00000010: 6a53 42be ea7f 5bbe 9dd3 4bbd b899 ecbc
00000020: b39f 8c3e f0e2 f73c bf15 0d3e 1bd5 edbc
00000030: cf81 ed3d 9e8e 61be def2 bfbe 4b35 84be
00000040: 9444 953e 4679 063e c285 803d 8381 68be
00000050: 6041 0dbe 6540 93be 60aa 6a3d 27c3 8f3c
00000060: 801d 713c b4c5 ccbe 0168 28be ad12 cfbe
00000070: ccce 91be 3f5e f8bd 4003 acbe 3121 7e3e
00000080: 60ff c83d 1c98 fdbc 6e66 3fbd b464 5bbe
00000090: 1d5e c3bc 35a8 643b d596 4f3e 3fd5 84be
000000a0: 7324 a53d fbc8 953d 7f43 d4b9 1cb2 cd3d
000000b0: 6b2e d63d 2cd5 18bd af65 50be 1d5c 00be
000000c0: da70 8f3d a5e3 533d 1767 3bbc 4128 a23c
000000d0: 636e 8a3a 0ecd 6a3b 65d0 9e3d 3f94 d93c
000000e0: 096d 283e f4e2 653e 2316 81be b5cd 23bd
000000f0: bb02 963e dca2 b03e 3572 dfbd 54e8 f8bb
00000100: 262f 4fbe e154 b8bd 4911 ddbe 039d 333e
00000110: c7b1 dcbe 3d19 3c3e 5893 1c3e c997 e6bd
00000120: b9dd b13c f63a 023f 2b58 9e3d fbfe c5bd
00000130: 644b 23bd 86b8 5ebe 28e1 5a3d 8f19 c3be
00000140: d04f 813d 1aa0 0abf 43e9 c8bd 055b 55be
00000150: 7b05 b9be af65 c33e 2d83 1abf 1dfb a9bc
00000160: 3908 d0be e7ad 84be ee34 76be 394c f8bd
00000170: 21fd 023e e42b 9dbe 902b 1fbd 0021 943d
00000180: 7098 793d 82fd 41be 495d d7be 9cb0 a2bd
00000190: 1e07 b53e f027 22be 173b d03a d3f5 833e
000001a0: 282b a8be 37e7 abbe eb95 a9be f725 76be
000001b0: 2bdd 7bbe 5fb5 0abd 1a98 45be 08f4 eb3d
000001c0: 1552 adbe 2489 b6bc 7d3e acbe 3c61 a73e
000001d0: a5d4 643d 846b b73e cf13 333e 2422 04be
000001e0: f906 813e 1397 9a3e a73a 4e3e a57e 1c3d
000001f0: 4d44 803e 1560 24be 1eed 5f3e 9074 28be
00000200: 418d 4d3e ad34 3f3e cb77 92be 34d5 3dbe
00000210: a295 1f3e 82e2 a6be 876b 37be a22b 883d
00000220: 23f9 9ebd 256d bbbe de59 bbbe 24da 5c3e
00000230: c14c f6bc b7f1 ea3d 7d37 60be a639 833d
00000240: 515a b0bc dfa9 1cbe 9db0 ff3d 0b86 5e3c
00000250: b630 84bd 2828 fbbc 77e9 263d 2755 8d3e
00000260: bad5 d73d fd2d 73bd 9218 15be aa41 16be
00000270: 8982 b4bc d85a 53bd 9493 393e c97f c0bd
00000280: c9ac 5fbe c71a 6d3e 86f6 7abc 16d8 ed3d
00000290: 008e ce3e 1e96 333d 8c1f d0bb a36c 613e
000002a0: 9f53 8cbd da6e 6fbd 86e5 1cbe bfeb 603d
000002b0: 0bf2 9dbd db4e 15bd 5d1a 213d 7cfa 913e
000002c0: 098c 8e3e d1ae 883d 5d3b d63e cc90 9bbe
000002d0: c3bd 87bd 287b 0d3e cd1f b53e 9e6b 253c
000002e0: 136c 38be 6077 a0be 9353 b3be a21f 28bd
000002f0: bf29 943e d477 a9be edb8 59bd 8e35 99be
00000300: b474 11be 61be 993e 1010 6b3e 3fc7 c93d
00000310: f18f b6bd d3ce 2ebe 9520 a6bd 08ed 62bd
00000320: b134 113d 7c78 ccbc a7b9 113e e654 bdbd
00000330: bab0 713d a6d5 67bc b894 03be f430 3e3e
00000340: 21bc 6b3d 303f 52be 26c1 f73d b9d2 e1bd
00000350: 9dfa d23d f315 edbb 8acc 2bbd d768 22be
00000360: 7535 eebd 995c 03be 33e8 943d dfea fc3d
00000370: 2df7 8bbc af5a 5dbe d319 d4be 753d 96bc
00000380: 005b a5be 75d1 253e 6143 903e 3278 79be
00000390: f36f 70be db74 63be 1c9f b1be 2dfe 5dbd
000003a0: b976 76be 3d24 b4be 25c7 243d 3c5e 81bd
000003b0: 9c2a 863d 86cc ccbe 88e1 1dbe 6a73 503e
000003c0: 2b84 273e 0f59 cd3e 4370 3fbc 23ff 07bd
000003d0: 6b7d aa3c ce55 463e 1a6f 8f3e 3639 82be
000003e0: 3154 0ebe 9834 e8bd ed2b 393e e713 e8bd
000003f0: 5ced 0fbe 971b 55bc 1d7c 163e 0d8a 0dbe

0.bias f4 [64]
0.625171 0.22519232 0.26242986 0.8858814 -0.051981676 0.84949756 0.44186518 -0.33435592
0.50076514 0.13519256 0.81230843 0.0048146667 -0.026160456 0.5428937 0.49238288 0.85437316
0.23459907 0.30614194 0.19907947 0.7800692 0.6145314 0.58126456 -0.15319079 -0.1604304
0.18396246 0.25055835 0.512466 -0.17935243 0.35228658 0.5449105 0.36069968 0.47636077
0.17691636 0.5881074 0.17561632 -0.13985196 0.6110469 -0.17268273 0.792616 0.07867856
0.30096772 0.28007996 -0.25074726 -0.14169858 0.576523 0.9697321 0.95202243 0.095468685
-0.047709 -0.056225855 0.5993508 -0.035156656 0.13560173 0.16938227 0.23673818 0.8538602
0.0686362 0.6721397 -0.0089836335 0.16051392 0.56176615 0.7844614 0.62430036 0.7995335
00000000: 350b 203f d198 663e 355d 863e 20c9 623f
00000010: bdea 54bd ac78 593f 273c e23e b330 abbe
00000020: 2532 003f eb6f 0a3e 72f3 4f3f 5ac4 9d3b
00000030: 744e d6bc 15fb 0a3f 9c19 fc3e 33b8 5a3f
00000040: bd3a 703e a3be 9c3e 7ddb 4b3e 9db2 473f
00000050: ee51 1d3f c1cd 143f 0cde 1cbe de47 24be
00000060: a860 3c3e 2f49 803e f930 033f 2aa8 37be
00000070: e85e b43e 417f 0b3f a1ad b83e 8fe5 f33e
00000080: 9029 353e 358e 163f c4d4 333e 5a35 0fbe
00000090: 926d 1c3f bed3 30be e2e8 4a3f 3a22 a13d
000000a0: 7118 9a3e a466 8f3e f261 80be 6f19 11be
000000b0: 0397 133f 5d40 783f beb7 733f 1685 c33d
000000c0: 836a 43bd 154d 66bd 0e6f 193f 6d00 10bd
000000d0: 2edb 0a3e 8c72 2d3e 7e6b 723e 9596 5a3f
000000e0: 2391 8c3d 5911 2c3f 1730 13bc c35d 243e
000000f0: e8cf 0f3f 76d2 483f 26d2 1f3f 3aae 4c3f

2.weight f4 [1, 64]
0.18912598 0.15410386 0.1768566 0.3153583 0.028779455 0.27426058 0.22781835 -0.5682676
0.18046544 0.14624636 0.24321148 -0.07079087 -0.027937295 0.13782354 0.31275958 0.24494429
0.18940671 0.12766582 0.0142261125 0.27698457 0.2134019 0.19629502 -0.15273134 -0.15617812
0.18369612 0.1191515 0.22227336 -0.18692896 0.09548741 0.17006476 0.083352886 0.1836941
0.119657636 0.27374008 0.14802603 -0.094288155 0.30237228 -0.16684988 0.21730487 0.022332111
0.13820164 0.21643017 -0.23085739 -0.20028596 0.267186 0.23247324 0.3159884 0.017248346
-0.0671135 -0.07696646 0.17715336 -0.042405378 0.044022482 0.035645854 0.044725124 0.2763442
0.14755854 0.22665697 -0.014746087 0.108746395 0.1350281 0.23559031 0.27900922 0.17306316
00000000: 3eaa 413e 67cd 1d3e e619 353e a576 a13e
00000010: e4c2 eb3c e26b 8c3e 3749 693e fc79 11bf
00000020: efcb 383e 9bc1 153e 6e0c 793e cefa 90bd
00000030: c1dc e4bc 9d21 0d3e 0622 a03e add2 7a3e
00000040: d5f3 413e d4ba 023e a414 693c ecd0 8d3e
00000050: 0786 5a3e 9001 493e 9b65 1cbe 28ed 1fbe
00000060: d61a 3c3e b405 f43d a19b 633e 4e6a 3fbe
00000070: e78e c33d 7525 2e3e ebb4 aa3d 4e1a 3c3e
00000080: 100f f53d a927 8c3e 2394 173e 261a c1bd
00000090: 8ad0 9a3e b2da 2abe 2b85 5e3e d5f1 b63c
000000a0: bb84 0d3e df9f 5d3e e165 6cbe c317 4dbe
000000b0: 9acc 883e 770d 6e3e 3bc9 a13e 674c 8d3c
000000c0: cd72 89bd 97a0 9dbd b167 353e 43b1 2dbd
000000d0: eb50 343d 6301 123d b131 373d fd7c 8d3e
000000e0: 9619 173e c418 683e 9299 71bc 6eb6 de3d
000000f0: ce44 0a3e 963e 713e 4cda 8e3e 7837 313e
